model/Fashion_mnist_model.pt (torch, 122390 bytes, 14 tensors)

layer1.0.weight f4 [16, 1, 5, 5]
0.26614258 -0.2569662 0.097381495 0.06158932 -0.7108155 0.2402867 -0.03936873 0.225548
-0.047011856 -0.2645727 0.11567509 0.013140162 0.12125319 0.14243764 0.121419415 -0.2395376
0.035376698 -0.21628825 0.42134848 0.21558192 -0.36887345 -0.44487143 -0.31937242 0.17267706
0.13335156 -0.03742613 0.00422211 0.32894263 -0.47877812 0.22462443 -0.08034859 0.28506523
0.40224567 -0.6498866 -0.24924693 0.0017810229 0.29419777 0.32389322 -0.1793198 -0.27110046
0.07317594 -0.21333483 0.36592776 -0.10817294 -0.00622671 0.042952813 -0.21738805 0.17855807
-0.06963965 0.07005859 -0.15667693 -0.04336884 -0.04236326 -0.24271409 0.45856813 0.16845247
-0.043882906 -0.54140395 0.41158 0.2541189 -0.10855896 -0.14038864 0.17549607 0.68224686
-0.55689687 0.007710318 0.111745484 0.39395225 -0.3065772 -0.2671486 0.039928306 0.056431778
0.04650562 -0.3505632 0.041539717 0.060027406 0.30433047 0.11482272 -0.67889273 0.19433813
-0.056381796 -0.08243392 0.057966955 -0.34561178 0.33273652 0.0027330634 -0.45161217 0.14939612
0.01714467 0.09025888 0.058928315 -0.37262782 0.06946451 0.42271072 -0.55753994 -0.09477156
0.057786476 -0.11190181 0.3002212 -0.28865835 -0.118643716 -0.31960797 -0.08631709 -0.0074208514
-0.14218676 -0.06544015 0.5054491 0.40944895 0.1270025 0.020959117 0.08507594 1.0910829
0.6812649 0.0050745658 -0.065883316 0.017499443 0.47756281 0.44610658 -0.058116823 -0.3323964
-0.35311007 -0.0814163 0.13639474 -0.13017522 -0.087982796 -0.08102682 -0.3023467 -0.3088273
0.064664096 0.3105905 -0.28003645 0.026283441 0.5344293 0.52098376 -0.1202313 0.49486667
0.35953447 -0.08452689 -0.49905443 -0.30241266 -0.27043992 -0.36377296 -0.29017898 0.27579316
0.07198304 -0.026102247 0.2573774 0.10152425 0.1407517 0.053301148 -0.106207155 0.33047178
-0.14837858 0.11877958 -0.6687461 -0.6054465 -0.16164644 -0.12018261 0.28204337 -0.068378516
-0.6571564 0.24252509 0.07235497 -0.044653237 -0.07401392 0.06363385 -0.10668947 0.2137212
-0.41521454 -0.2997699 -0.08168296 -0.069987066 0.20656419 0.05832756 0.46412718 0.29459324
0.30728146 0.24399148 -0.050312735 0.1260798 -0.02246704 0.028125662 -0.3630191 -0.23482263
-0.19901977 0.10778879 -0.5618134 -0.63828814 -0.1922763 -0.113732174 0.098808385 -0.122992575
-0.2256553 0.12566511 0.22582628 -0.016822988 0.069796816 0.33337325 0.54483974 -0.0017210457
0.0052743345 -0.033696264 0.007490192 -0.002186161 0.05342839 0.026870027 -0.04501194 -0.19402759
0.17263687 0.05243893 0.17968915 0.019599501 -0.6461973 0.31547466 0.13997324 0.20832866
0.20527603 -0.62014014 -0.21787244 0.43504217 -0.045283955 0.31948954 -0.30205902 -0.2228991
0.26912594 -0.2689313 -0.16646548 0.32675827 -0.053041443 0.14678529 -0.033949684 -0.42200446
0.6228368 -0.16868736 0.003289845 0.22826995 -0.5878313 0.27454355 0.37122008 -0.32121062
0.108698495 -0.13662882 -0.14271669 0.2738084 -0.11331121 0.18921742 -0.15737864 -0.26079848
-0.042870507 0.24368861 0.05797483 -0.055981394 -0.111058444 0.24334244 -0.02430956 -0.01844049
00000000: d743 883e 1391 83be f36f c73d 1545 7c3d
00000010: 01f8 35bf b70d 763e 1b41 21bd 0ef6 663e
00000020: 818f 40bd 1376 87be 10e7 ec3d d649 573c
00000030: 9853 f83d 2cdb 113e beaa f83d 5849 75be
00000040: 28e7 103d ab7a 5dbe fdba d73e 82c1 5c3e
00000050: fbdc bcbe 30c6 e3be c884 a3be 41d2 303e
00000060: 508d 083e 244c 19bd a059 8a3b 2b6b a83e
00000070: 6822 f5be f203 663e cd8d a4bd 12f4 913e
00000080: 25f3 cd3e f85e 26bf 963a 7fbe 3671 e93a
00000090: 17a1 963e 55d5 a53e 9c9f 37be aecd 8abe
000000a0: 44dd 953d 7274 5abe e25a bb3e c689 ddbd
000000b0: 6e09 ccbb 4aef 2f3d f99a 5ebe edd7 363e
000000c0: 3c9f 8ebd e17a 8f3d eb6f 20be 86a3 31bd
000000d0: 1985 2dbd 0b8a 78be 71c9 ea3e ce7e 2c3e
000000e0: 90be 33bd 7399 0abf 9dba d23e df1b 823e
000000f0: 2954 debd 0ac2 0fbe 3eb5 333e bba7 2e3f
00000100: cb90 0ebf d6a6 fc3b d1da e43d 1cb4 c93e
00000110: b0f7 9cbe b4c7 88be dd8b 233d 0225 673d
00000120: ad7c 3e3d 057d b3be 8d25 2a3d 4cdf 753d
00000130: 34d1 9b3e 2d28 eb3d eacb 2dbf 9300 473e
00000140: 99f0 66bd 1dd3 a8bd c26e 6d3d 07f4 b0be
00000150: 715c aa3e 321d 333b b639 e7be 4cfb 183e
00000160: fb72 8c3c a6d9 b83d d15e 713d 13c9 bebe
00000170: 6943 8e3d 8a6d d83e f0ba 0ebf 9717 c2bd
00000180: 83b1 6c3d c72c e5bd 98b6 993e 07cb 93be
00000190: 7afb f2bd a8a3 a3be 04c7 b0bd 9d2a f3bb
000001a0: 6899 11be 7c05 86bd 1d65 013f 4ba3 d13e
000001b0: f20c 023e 74b2 ab3c 4b3c ae3d 9ba8 8b3f
000001c0: 6067 2e3f 8b48 a63b d5ed 86bd fe5a 8f3c
000001d0: 1d83 f43e 1568 e43e e80b 6ebd dc2f aabe
000001e0: d8ca b4be 97bd a6bd 10ab 0b3e a74c 05be
000001f0: 5330 b4bd 64f1 a5bd 30cd 9abe 9d1e 9ebe
00000200: 9c6e 843d b805 9f3e f060 8fbe 5f50 d73c
00000210: 5cd0 083f 315f 053f d43b f6bd 2a5f fd3e
00000220: e714 b83e 6f1c adbd 1084 ffbe d5d5 9abe
00000230: 1a77 8abe 7340 babe 5792 94be c334 8d3e
00000240: d86b 933d 61d4 d5bc f8c6 833e f2eb cf3d
00000250: 3721 103e 4e52 5a3d 2383 d9bd 9933 a93e
00000260: 8ef0 17be b542 f33d f232 2bbf 8bfe 1abf
00000270: a586 25be 4d22 f6bd fd67 903e 090a 8cbd
00000280: 673b 28bf 7f58 783e d82e 943d 50e6 36bd
00000290: 9c94 97bd 7752 823d 0280 dabd bbd9 5a3e
000002a0: 0097 d4be 717b 99be 6549 a7bd 6155 8fbd
000002b0: 9085 533e e1e8 6e3d 14a2 ed3e edd4 963e
000002c0: ff53 9d3e e7d8 793e ba14 4ebd 101b 013e
000002d0: cc0c b8bc ca67 e63c a4dd b9be 5875 70be
000002e0: d7cb 4bbe 5ec0 dc3d 01d3 0fbf da66 23bf
000002f0: 14e4 44be 6aec e8bd 0d5c ca3d 88e3 fbbd
00000300: 2f12 67be 5bae 003e 013f 673e 5dd0 89bc
00000310: a2f1 8e3d e6af aa3e 9e7a 0b3f b694 e1ba
00000320: 53d4 ac3b 1805 0abd 4970 f53b b245 0fbb
00000330: bad7 5a3d 881e dc3c 715e 38bd 2baf 46be
00000340: b8c7 303e 34ca 563d 6f00 383e 228f a03c
00000350: 306d 25bf e585 a13e 2555 0f3e 1c54 553e
00000360: e133 523e 81c1 1ebf f419 5fbe d9bd de3e
00000370: ab7b 39bd 2294 a33e 7ba7 9abe a93f 64be
00000380: e0ca 893e 5db1 89be ed75 2abe dc4c a73e
00000390: fc41 59bd e24e 163e d30e 0bbd f810 d8be
000003a0: 3c72 1f3f 61bc 2cbe 719a 573b 99bf 693e
000003b0: 1d7c 16bf f990 8c3e 8f10 be3e b875 a4be
000003c0: 519d de3d 6de8 0bbe 5324 12be 9d30 8c3e
000003d0: b50f e8bd 36c2 413e de27 21be 6187 85be
000003e0: fc98 2fbd 8289 793e 0477 6d3d bf4c 65bd
000003f0: 9c72 e3bd c32e 793e d824 c7bc 8310 97bc

layer1.0.bias f4 [16]
-0.06536461 -0.16563158 -0.13055232 -0.012275659 0.008876262 0.007377597 -0.3170175 -0.40803862
0.029531548 -0.21973749 -0.038697578 0.4583992 -0.07840023 -0.112957105 -0.3164303 -0.09159114
00000000: e1dd 85bd 539b 29be 82af 05be d81f 49bc
00000010: be6d 113c c5bf f13b 1e50 a2be 70ea d0be
00000020: 25ec f13c dd02 61be 5a81 1ebd 4db3 ea3e
00000030: 4d90 a0bd 0e56 e7bd 2703 a2be 2394 bbbd

layer1.1.weight f4 [16]
0.9245625 0.7502628 0.85037374 0.8859745 0.80490446 0.693827 1.3284018 0.93963826
1.0226868 0.73973984 0.63228637 1.4643594 0.65014005 1.6413352 0.8323515 0.7223467
00000000: 21b0 6c3f 3911 403f 18b2 593f 3acf 623f
00000010: 380e 4e3f a59e 313f 1209 aa3f 228c 703f
00000020: 67e7 823f 975f 3d3f 85dd 213f 2170 bb3f
00000030: 946f 263f 4617 d23f fd14 553f b7eb 383f

layer1.1.bias f4 [16]
-0.4827725 0.14452507 -0.24320668 -0.54647756 -0.8452516 -0.3385696 -0.6153239 -0.28031996
-0.06375842 -0.047843903 -0.22155778 -0.859157 0.089568175 -0.81819975 -0.4180645 -0.8599503
00000000: f52d f7be 61fe 133e 2c0b 79be f4e5 0bbf
00000010: 6962 58bf ff58 adbe de85 1dbf 1986 8fbe
00000020: c693 82bd f8f7 43bd 0be0 62be b7f1 5bbf
00000030: 856f b73d 8a75 51bf 8d0c d6be b425 5cbf

layer1.1.running_mean f4 [16]
-0.19028245 -0.18054928 -0.08897313 -0.19460025 0.6402563 0.07324389 -0.8020157 -0.4991741
0.037351575 -0.2246726 0.08779476 -0.46726403 -0.11661667 -0.9897897 -0.35565397 0.18275328
00000000: 67d9 42be e9e1 38be 8b37 b6bd 4a45 47be
00000010: d6e7 233f e500 963d e750 4dbf bf93 ffbe
00000020: f7fd 183d 9310 66be bdcd b33d 3b3d efbe
00000030: b8d4 eebd dc62 7dbf 4718 b6be ad23 3b3e

layer1.1.running_var f4 [16]
0.07542389 0.09787269 0.033159412 0.06359627 0.71927947 0.03799179 0.30710146 0.10619732
0.086045794 0.059903033 0.0800292 1.2122393 0.33856532 1.0967109 0.07097368 0.12099569
00000000: d777 9a3d 7a71 c83d 2ad2 073d c33e 823d
00000010: b322 383f 479d 1b3d 673c 9d3e fb7d d93d
00000020: c738 b03d e25c 753d 59e6 a33d a82a 9b3f
00000030: 6f58 ad3e 0661 8c3f a65a 913d 97cc f73d

layer2.0.weight f4 [32, 16, 5, 5]
0.21390373 -0.05727389 -0.053936224 0.0460443 -0.09577134 0.25162637 0.06721736 -0.10014201
-0.08657872 0.03179624 0.29902115 0.10851314 -0.11968688 -0.16394924 0.059895806 -0.06751829
0.015749928 -0.15218832 0.0015569471 -0.01937813 0.08126152 -0.20753881 0.08449824 0.0833475
-0.030531768 0.31976753 -0.39832032 -0.15973051 0.42541468 0.22417904 0.2939339 -0.2610559
-0.3462021 0.015149132 -0.3546799 0.21349248 0.18361339 -0.3842473 -0.4237268 -0.33978432
-0.15297996 0.15033579 0.01544407 -0.42120314 -0.47601745 -0.20508578 0.17440644 0.13173807
-0.10054234 -0.086409464 -0.33781663 -0.11500535 0.004324055 -0.20354337 0.18794218 -0.122556426
0.004114161 0.039316334 -0.18741776 0.08680372 -0.33886635 -0.2909582 -0.07919864 0.326088
0.09175786 -0.25957555 -0.0847887 0.36849305 0.42984644 0.13567786 0.09957476 0.22311597
0.20557442 0.032670166 0.31889233 -0.0896026 0.054530695 -0.5822989 -0.40656373 0.058865387
0.2888082 0.15435185 -0.45680946 -0.29657584 0.055423994 0.09274806 -0.2964969 -0.42366135
0.27833408 0.04714714 0.25151452 -0.1154553 0.29078752 0.20984219 0.3460409 0.32858235
0.0052735303 0.21489805 -0.03515087 0.50879014 -0.25243226 -0.23057778 -0.12949142 0.19253172
-0.2424249 -0.4693823 -0.22359519 -0.13095051 0.014240792 -0.6357651 -0.1650882 0.0320517
-0.064795025 -0.14971432 -0.36235288 -0.31354132 -0.07235248 -0.37120548 -0.52287155 -0.23491944
-0.14231749 -0.030139359 -0.3650621 -0.40178216 -0.17735003 -0.45955664 -0.4012613 -0.4220481
-0.15848623 0.08672599 -0.22935022 -0.23490117 0.09671979 -0.2812225 0.0018206738 0.104541905
-0.17486665 -0.47417495 -0.27110034 -0.11103515 -0.047928628 -0.26472113 0.068314925 0.15610215
-0.24120809 0.27868947 -0.07333789 -0.113343544 0.07406168 -0.26957926 -0.27652088 -0.049112353
-0.025043678 -0.051729776 0.10456062 -0.14200047 -0.22580111 -0.23061602 0.0653623 0.232009
0.30603802 -0.01185153 0.3073017 0.22206764 0.37234172 0.17537796 -0.0089185955 0.100749046
0.2321512 0.28522232 0.23090729 -0.011518191 -0.22382206 -0.05708053 0.030639926 -0.21674955
-0.2934489 -0.2304252 -0.13095486 0.22412086 0.026978977 -0.029642513 0.15978582 0.28809255
0.1651778 -0.12202628 -0.099382155 0.096939646 0.29898867 0.112549834 0.3628258 0.20607434
-0.054584928 0.13711958 0.09310428 -0.07792206 -0.26394364 0.4655108 0.2666619 0.043262836
0.27666244 0.22136398 -0.1979061 -0.10210429 0.122747205 -0.23299406 0.1012602 -0.26941028
-0.23293829 -0.06720901 0.17944463 -0.026723588 0.24636635 -0.117083825 0.0967444 0.08101686
-0.25515544 0.0763824 0.052513115 -0.08343377 -0.25042793 -0.22665128 0.11776693 0.0490965
-0.3807723 -0.12165903 0.4142331 -0.37686864 -0.26699364 0.09203165 -0.25149524 0.20027564
-0.081880055 -0.8897405 0.12161913 -0.084231146 -0.0044622016 -0.020603105 -0.2593266 0.059307802
0.037573732 -0.047591325 0.13354225 0.0035845926 -0.21018912 -0.02947395 0.37002078 -0.0011150399
-0.0022313334 -0.24979231 -0.112722434 -0.2901794 -0.054271 0.0813654 0.24143521 -0.33895427
00000000: 9409 5b3e 0798 6abd 3bec 5cbd f398 3c3d
00000010: c423 c4bd 2cd5 803e 41a9 893d 4117 cdbd
00000020: 2f50 b1bd c63c 023d 4d19 993e 233c de3d
00000030: 651e f5bd 4fe2 27be 4e55 753d 0747 8abd
00000040: fe05 813c 41d7 1bbe 7a12 cc3a e2be 9ebc
00000050: 716c a63d 0e85 54be 6a0d ad3d 18b2 aa3d
00000060: c21d fabc 92b8 a33e a4f0 cbbe 6590 23be
00000070: f4cf d93e 318f 653e 817e 963e 1ea9 85be
00000080: 6741 b1be 1134 783c 9b98 b5be c69d 5a3e
00000090: 2605 3c3e 10bc c4be b8f2 d8be 36f8 adbe
000000a0: c7a6 1cbe a0f1 193e 2009 7d3c f0a7 d7be
000000b0: 8fb8 f3be 0202 52be 9a97 323e 58e6 063e
000000c0: 24e9 cdbd 72f7 b0bd 4df6 acbe ed87 ebbd
000000d0: cdb0 8d3b ac6d 50be ea73 403e ddfe fabd
000000e0: 15d0 863b 2a0a 213d 71ea 3fbe 26c6 b13d
000000f0: e47f adbe 79f8 94be e632 a2bd 02f5 a63e
00000100: 8beb bb3d 16e7 84be b3a5 adbd 1fab bc3e
00000110: d514 dc3e 23ef 0a3e daed cb3d 8378 643e
00000120: 1a82 523e 27d1 053d db45 a33e 9181 b7bd
00000130: 945b 5f3d 8a11 15bf 1f29 d0be d51c 713d
00000140: abde 933e 690e 1e3e eee2 e9be cad8 97be
00000150: 4504 633d b2f2 bd3d 71ce 97be 24ea d8be
00000160: ce81 8e3e 5c1d 413d 83c6 803e d473 ecbd
00000170: 1ae2 943e dfe0 563e 462c b13e f23b a83e
00000180: 94cd ac3b 3c0e 5c3e 5cfa 0fbd 1240 023f
00000190: cd3e 81be 951c 6cbe 6699 04be 0927 453e
000001a0: 3c3e 78be e052 f0be 23f6 64be e417 06be
000001b0: 3652 693c 80c1 22bf e20c 29be a548 033d
000001c0: 41b3 84bd b64e 19be 5186 b9be 7d88 a0be
000001d0: 892d 94bd a50e bebe e9da 05bf b98e 70be
000001e0: adbb 11be d1e6 f6bc 6be9 babe 64b6 cdbe
000001f0: 3f9b 35be 024b ebbe 1f72 cdbe b016 d8be
00000200: 374a 22be 659d b13d c9da 6abe ef89 70be
00000210: 0615 c63d 65fc 8fbe ada3 ee3a 111a d63d
00000220: 3e10 33be 0fc7 f2be aacd 8abe 6666 e3bd
00000230: cf50 44bd 8789 87be b2e8 8b3d 3ed9 1f3e
00000240: 41ff 76be 63b0 8e3e 2d32 96bd a920 e8bd
00000250: a6ad 973d 4b06 8abe 2594 8dbe 092a 49bd
00000260: 6628 cdbc 9ae2 53bd e123 d63d 9268 11be
00000270: 6838 67be 9b26 6cbe abdc 853d c493 6d3e
00000280: 04b1 9c3e eb2c 42bc a656 9d3e b365 633e
00000290: 93a3 be3e 4896 333e 4d1f 12bc 8455 ce3d
000002a0: 0bb9 6d3e a908 923e f672 6c3e cbb6 3cbc
000002b0: 9c31 65be 46cd 69bd 9500 fb3c 98f3 5dbe
000002c0: ef3e 96be 95f4 6bbe 0819 06be f07f 653e
000002d0: 0403 dd3c dbd4 f2bc e59e 233e de80 933e
000002e0: 5f24 293e eae8 f9bd df88 cbbd 4b88 c63d
000002f0: 0b15 993e 8780 e63d 4ec4 b93e 2705 533e
00000300: 7294 5fbd 1369 0c3e 75ad be3d 9a95 9fbd
00000310: 9f23 87be 6e57 ee3e e987 883e 5f34 313d
00000320: b3a6 8d3e 3dad 623e e6a7 4abe 0e1c d1bd
00000330: e362 fb3d ff95 6ebe 8261 cf3d 25f0 89be
00000340: 6087 6ebe e1a4 89bd 55c0 373e 6deb dabc
00000350: 7647 7c3e a5c9 efbd ee21 c63d 2bec a53d
00000360: bca3 82be 606e 9c3d fe17 573d 53df aabd
00000370: 1738 80be 4617 68be ca2f f13d 6919 493d
00000380: 96f4 c2be 5f28 f9bd 5c16 d43e edf4 c0be
00000390: 64b3 88be 177b bc3d fcc3 80be 0f15 4d3e
000003a0: bbb0 a7bd 09c6 63bf 7313 f93d 6181 acbd
000003b0: a937 92bb d8c7 a8bc 75c6 84be bdec 723d
000003c0: eae6 193d 1fef 42bd 4dbf 083e 7ceb 6a3b
000003d0: d13b 57be 5a73 f1bc 5d73 bd3e 8826 92ba
000003e0: 903b 12bb 8ec9 7fbe 05db e6bd 6592 94be
000003f0: 454b 5ebd e7a2 a63d cb3a 773e 6a8b adbe

layer2.0.bias f4 [32]
-0.013328834 -0.029745743 -0.008282902 -0.04276038 -0.058795583 0.052614782 0.059279915 -0.013433316
-0.045343734 0.040650673 -0.008779089 0.02317622 -0.04071453 0.040519025 0.0993085 -0.00021978884
-0.03537444 0.010114674 0.017485073 0.0037898773 -0.013714395 0.024924265 0.004473931 -0.014710143
-0.012970463 -0.003853987 -0.045812964 0.09015993 -0.009530182 -0.029029127 0.0017209235 0.027134296
00000000: 2f61 5abc 58ad f3bc 02b5 07bc 8225 2fbd
00000010: a3d3 70bd 9982 573d 7fcf 723d 6917 5cbc
00000020: 5aba 39bd 5281 263d 2bd6 0fbc 0edc bd3c
00000030: 47c4 26bd 47f7 253d 4162 cb3d 1e77 66b9
00000040: cae4 10bd 05b8 253c db3c 8f3c 975f 783b
00000050: 58b2 60bc f92d cc3c 0e9a 923b d002 71bc
00000060: 1182 54bc 2c93 7cbb 60a6 3bbd c5a5 b83d
00000070: 7b24 1cbc 7ece edbc 9c90 e13a be48 de3c

layer2.1.weight f4 [32]
0.65438634 0.6741386 0.48051646 0.52037907 0.72171617 0.48132116 0.4562767 0.69505256
0.6291976 0.5962681 0.6576249 0.6727353 0.6634368 0.48165038 0.7563076 0.54862773
0.3034385 0.5824148 0.66345024 0.57391757 0.582059 0.75505835 0.41365692 0.47507906
0.5451313 0.5182353 0.699426 0.66224533 0.7162887 0.5435925 0.61596876 0.5787499
00000000: dd85 273f 5994 2c3f 4106 f63e 9037 053f
00000010: 64c2 383f ba6f f63e 1a9d e93e f7ee 313f
00000020: 1813 213f 07a5 183f 1b5a 283f 6138 2c3f
00000030: fed6 293f e19a f63e 609d 413f de72 0c3f
00000040: 4b5c 9b3e 2319 153f e0d7 293f 43ec 123f
00000050: d201 153f 814b 413f d7ca d33e 903d f33e
00000060: ba8d 0b3f 12ab 043f 950d 333f e988 293f
00000070: b25e 373f e128 0b3f 21b0 1d3f f428 143f

layer2.1.bias f4 [32]
-0.554479 -0.58034974 -0.46931332 -0.42342 -0.530054 -0.4213373 -0.29003665 -0.42308056
-0.45775694 -0.48030055 -0.5221451 -0.5901693 -0.6771895 -0.4602966 -0.5247037 -0.46191466
-0.3730987 -0.4126864 -0.50410235 -0.48570377 -0.40730873 -0.5322165 -0.55409735 -0.42142925
-0.49206957 -0.43972248 -0.4425014 -0.6169515 -0.5100692 -0.3681745 -0.49478 -0.5863203
00000000: 56f2 0dbf cd91 14bf d649 f0be 82ca d8be
00000010: 9eb1 07bf 86b9 d7be af7f 94be 049e d8be
00000020: 1e5f eabe f4e9 f5be 4dab 05bf 5615 17bf
00000030: 4b5c 2dbf ffab ebbe fb52 06bf 1480 ecbe
00000040: cb06 bfbe a24b d3be da0c 01bf 2aae f8be
00000050: c58a d0be 573f 08bf 53d9 0dbf 93c5 d7be
00000060: 8bf0 fbbe 4e23 e1be 8b8f e2be 89f0 1dbf
00000070: e593 02bf 5e81 bcbe ce53 fdbe 1619 16bf

layer2.1.running_mean f4 [32]
-2.3218315 -4.1697316 -3.3351283 -4.732154 -4.7851105 -2.6337433 -3.7345567 -7.4715776
-5.731477 -4.7041683 -5.216143 -5.7931614 0.47961956 -2.3530717 -5.7400413 -2.641464
0.71648645 -2.002747 -5.310129 -3.724902 -3.467975 -6.9851494 -0.6267743 -0.6485779
2.097349 -3.726794 -7.757301 -5.14744 -4.422634 -3.89369 -6.4971304 2.121696
00000000: e398 14c0 716e 85c0 be72 55c0 ce6d 97c0
00000010: a01f 99c0 408f 28c0 fa02 6fc0 2a17 efc0
00000020: 4268 b7c0 8c88 96c0 a5ea a6c0 9461 b9c0
00000030: b290 f53e ba98 16c0 6bae b7c0 bf0d 29c0
00000040: a86b 373f 022d 00c0 94ec a9c0 cb64 6ec0
00000050: 4df3 5dc0 5886 dfc0 4874 20bf 3409 26bf
00000060: f73a 0640 cb83 6ec0 cf3b f8c0 d4b7 a4c0
00000070: 3886 8dc0 3832 79c0 7ee8 cfc0 dec9 0740

layer2.1.running_var f4 [32]
34.13491 19.616938 16.072393 18.116331 34.611782 17.59402 24.789225 49.941624
39.2049 24.51911 21.57425 22.803423 15.979664 18.882664 36.905792 22.218946
8.580802 19.49965 25.491547 18.137041 21.614756 37.389072 14.320756 14.326559
17.132168 14.226696 39.49043 17.750254 31.646433 15.660447 28.473244 15.212759
00000000: 268a 0842 7def 9c41 4394 8041 3fee 9041
00000010: 7772 0a42 8ec0 8c41 5550 c641 39c4 4742
00000020: d1d1 1c42 2327 c441 1098 ac41 696d b641
00000030: b4ac 7f41 b20f 9741 889f 1342 67c0 b141
00000040: f74a 0941 48ff 9b41 b0ee cb41 a918 9141
00000050: 05eb ac41 698e 1542 d121 6541 9639 6541
00000060: ae0e 8941 8ca0 6341 33f6 1d42 8500 8e41
00000070: e52b fd41 3191 7a41 34c9 e341 7667 7341

fc.weight f4 [10, 1568]
-0.10728608 -0.20057133 -0.20426254 0.29953727 0.21261351 -0.507438 -0.04961797 -0.039166864
-0.1040054 0.18679498 0.30117974 0.03281178 -0.2820518 -0.2153485 -0.0389266 -0.49563724
0.1578036 -0.013820588 0.15748027 -0.16409248 0.12698108 -0.06976432 -0.19001757 -0.08009106
-0.33082318 -0.31467703 0.044795208 -0.028501907 -0.023680337 0.18975207 0.33715454 -0.24778847
-0.026832765 0.44575348 0.04308204 -0.023832036 0.17348064 -0.2592721 -0.00046184342 0.19337818
0.39709774 -0.18544526 0.16250467 -0.2832359 0.020882068 -0.52652794 -0.2584901 0.035517853
0.0069762305 0.22032635 0.16905072 -0.19205238 -0.016527103 0.17618412 0.14631039 -0.12894514
0.05053592 0.07277189 -0.18844669 0.13157107 -0.037007086 0.19297604 -0.087471485 -0.015671939
0.049286526 0.04677102 0.008797464 -0.18309353 0.16573836 0.17488429 0.11726122 -0.028811656
0.196927 0.01805575 -0.17820376 -0.07253545 0.28925475 0.39314324 0.049956337 -0.06528026
0.12683022 -0.08377202 -0.31275856 0.044418134 0.042426467 -0.031099161 -0.041431613 0.22498551
0.08012827 -0.29691222 -0.06892334 0.36445805 -0.17316717 -0.020200957 0.07398349 0.003295855
-0.060169633 -0.10635936 -0.3061407 0.08895481 0.051561065 -0.22587092 0.15904802 0.44129464
-0.17224614 0.12843883 -0.099429175 0.0797047 -0.06046506 0.16852626 -0.02190197 -0.30767658
-0.033127803 0.005147675 -0.17655732 0.004238266 -0.013943721 0.53729755 -0.07036974 0.21998338
0.049286462 0.031890042 0.09361714 -0.13080168 -0.09524676 0.22377594 0.08451374 0.012288301
-0.023113279 0.01638978 -0.008533408 -0.30645105 0.10309929 0.17313302 0.058058336 -0.0938662
-0.10620766 -0.29303706 -0.40422466 0.0559867 -0.15616609 0.1308825 -0.06380524 -0.09361015
0.08876096 0.14419068 -0.059178602 -0.38592842 0.007151624 0.1356931 0.011846253 0.24470885
-0.17022572 -0.31645152 -0.071837336 0.15692422 0.0701472 -0.032065496 0.16599533 0.040642716
0.13444763 -0.07424213 0.23330997 0.08634537 -0.011389424 -0.13076691 -0.06149902 0.1658977
0.149958 0.54997313 0.08113726 0.17252712 -0.05691432 -0.20178747 0.01827189 -0.14995131
-0.32444832 0.21785831 -0.43854278 0.15806559 -0.0651509 -0.11659934 -0.16240914 -0.27238077
-0.0061365287 -0.07092267 0.024190037 0.022560295 -0.15895139 0.050571293 -0.107422344 -0.39723694
0.101475276 0.13521372 0.12780659 -0.131989 0.009037994 -0.090750635 0.15238956 -0.20087026
-0.0404263 0.1972562 -0.011457745 -0.13022734 -0.36663288 -0.055825137 -0.16631588 -0.121598326
0.0702051 -0.14802231 -0.11345055 0.05000533 0.10827282 0.107416965 0.12743166 0.045893475
0.14915219 -0.43656594 0.15609339 0.07988479 -0.046390355 0.11046385 -0.04095585 0.0040565785
0.12251639 -0.06908145 0.091398515 0.06050058 0.07862943 -0.32945746 -0.18126151 0.20192388
0.120629445 0.014774559 -0.14574213 0.09137856 -0.016437098 -0.45740747 0.025899585 -0.10551864
-0.03996592 -0.09190968 -0.05537336 -0.0048246137 -0.10368747 0.046232197 0.11588088 -0.11542874
0.14693528 0.049175344 0.009080848 0.119345106 -0.22903663 -0.07252305 -0.06796189 -0.0717712
00000000: ceb8 dbbd 9262 4dbe 332a 51be f35c 993e
00000010: 5bb7 593e 75e7 01bf 363c 4bbd 6f6d 20bd
00000020: c800 d5bd 2f47 3f3e 3b34 9a3e a565 063d
00000030: 1869 90be 5184 5cbe 8071 1fbd 2ac4 fdbe
00000040: 4497 213e bf6f 62bc 8242 213e dc07 28be
00000050: 5407 023e 99e0 8ebd f793 42be c806 a4bd
00000060: a861 a9be 591d a1be 2e7b 373d d57c e9bc
00000070: 44fd c1bc 5e4e 423e 859f ac3e 43bc 7dbe
00000080: 63d0 dbbc cd39 e43e cb76 303d 673b c3bc
00000090: e9a4 313e 50bf 84be 9323 f2b9 ee04 463e
000000a0: 6550 cb3e 5de5 3dbe a067 263e 4c04 91be
000000b0: df10 ab3c 89ca 06bf d058 84be 2b7b 113d
000000c0: dd98 e43b 3b9d 613e a21b 2d3e 61a9 44be
000000d0: d963 87bc 9c69 343e 64d2 153e 320a 04be
000000e0: c1fe 4e3d 6e09 953d 2bf8 40be 91ba 063e
000000f0: be94 17bd 839b 453e 4024 b3bd 7062 80bc
00000100: abe0 493d f892 3f3d 3d23 103c df7c 3bbe
00000110: 51b7 293e de14 333e a726 f03d 6c06 ecbc
00000120: 3ba7 493e a7e9 933c 0c7b 36be 778d 94bd
00000130: 3319 943e 124a c93e 049f 4c3d a8b1 85bd
00000140: c8df 013e aa90 abbd e421 a0be caef 353d
00000150: 60c7 2d3d abc3 febc 32b4 29bd 9a62 663e
00000160: 4a1a a43d e104 98be ae27 8dbd 3f9a ba3e
00000170: bc52 31be 7a7c a5bc a884 973d 45ff 573b
00000180: 6f74 76bd f0d2 d9bd 79be 9cbe f02d b63d
00000190: b231 533d b54a 67be 7cdd 223e 5ff1 e13e
000001a0: 4b61 30be 7885 033e 86a1 cbbd 383c a33d
000001b0: 36aa 77bd 2692 2c3e c36b b3bc c987 9dbe
000001c0: 05b1 07bd d4ad a83b 71cb 34be 27e1 8a3b
000001d0: 3474 64bc 558c 093f 031e 90bd 5343 613e
000001e0: 9ae0 493d 229f 023d 58ba bf3d e0f0 05be
000001f0: bc10 c3bd 8525 653e 8a15 ad3d df54 493c
00000200: 0f58 bdbc dc43 863c b5cf 0bbc 27e7 9cbe
00000210: b825 d33d c849 313e 94ce 6d3d ec3c c0bd
00000220: 6783 d9bd f408 96be 89f6 cebe 4f52 653d
00000230: 01ea 1fbe 1006 063e 52ac 82bd aeb6 bfbd
00000240: 4ec8 b53d b9a6 133e 4365 72bd 6998 c5be
00000250: 2c58 ea3b 22f3 0a3e c916 423c f594 7a3e
00000260: a74f 2ebe ef05 a2be 741f 93bd beb0 203e
00000270: 56a9 8f3d 1c57 03bd aefa 293e fa78 263d
00000280: a4ac 093e 420c 98bd cfe8 6e3e d7d5 b03d
00000290: b59a 3abc c3e7 05be 65e6 7bbd 16e1 293e
000002a0: 978e 193e 0acb 0c3f 4b2b a63d f3aa 303e
000002b0: fd1e 69bd 60a1 4ebe eeae 953c d68c 19be
000002c0: 171e a6be 4016 5f3e ae88 e0be f2db 213e
000002d0: d66d 85bd a3cb eebd 954e 26be 7e75 8bbe
000002e0: ef14 c9bb e83f 91bd 2f2a c63c 5ed0 b83c
000002f0: 27c4 22be d823 4f3d 3f00 dcbd a462 cbbe
00000300: 45d2 cf3d 7775 0a3e bbdf 023e 2028 07be
00000310: 1814 143c 78db b9bd 020c 1c3e efb0 4dbe
00000320: 0c96 25bd 87fd 493e 44b9 3bbc 515a 05be
00000330: 4eb7 bbbe e6a8 64bd b64e 2abe 8b08 f9bd
00000340: b1c7 8f3d 2993 17be c358 e8bd 64d2 4c3d
00000350: 24be dd3d 6dfd db3d 727d 023e ccfa 3b3d
00000360: 5abb 183e 9285 dfbe f2d6 1f3e a39a a33d
00000370: d003 3ebd df3a e23d 52c1 27bd 0ced 843b
00000380: e0e9 fa3d 937a 8dbd 252f bb3d 75cf 773d
00000390: 7708 a13d a6ae a8be 9e9c 39be 22c5 4e3e
000003a0: 920c f73d fe10 723c 6d3d 15be af24 bb3d
000003b0: 18a7 86bc 5031 eabe 5e2b d43c 281a d8bd
000003c0: 4eb3 23bd 243b bcbd 2dcf 62bd cb17 9ebb
000003d0: 195a d4bd f95d 3d3d f452 ed3d e765 ecbd
000003e0: 3476 163e 166c 493d d6c7 143c 356b f43d
000003f0: 9488 6abe f786 94bd 9a2f 8bbd c7fc 92bd

fc.bias f4 [10]
-0.32249603 -0.103726484 -0.14494151 0.1621789 0.13470128 -0.18920851 0.28267235 0.12693372
-0.24288885 -0.089161746
00000000: 331e a5be 8d6e d4bd 8c6b 14be 3a12 263e
00000010: 22ef 093e e0bf 41be 6eba 903e eafa 013e
00000020: dbb7 78be 6f9a b6bd
